LocalGuard/models/ids_registry.onnx (onnx, 2655 bytes, 3 tensors)

coefficient f4 [15, 16]
00000000: 95a8 ef3d bdc5 113f c81d 0f3f 8ad9 33be
00000010: 9379 50be 8bfc 74bd 6b34 3abf 4f2c c2be
00000020: a5cd a13e 4516 b43e 5a04 17bc 3728 183f
00000030: 1cd9 c4bd a23c 22bf ddde 1cbe 46d0 0fbe
00000040: 6a09 ab3d 4fe9 703e d191 d03e 67e0 e9be
00000050: d5d4 563e f96c 87bd 8d72 04bf 6b4b 5bbf
00000060: ce9d 553e 0421 dc3e 890a 083e e5f2 7a3e
00000070: 4c95 aabe e799 47bf 2bb7 853e 15cf 0fbe
00000080: 14f9 3dbe fd05 113f 10e4 433f 3a0a 703d
00000090: 3343 95bd 9f50 f6bd a024 e8bd 0d31 49bf
000000a0: 20a8 f8bd 428d 2e3e f3a3 ed3c 4b63 0a3f
000000b0: 8801 29bf cb5a 4ebe 0d69 1fbd 7241 3c3e
000000c0: 452f 7b3e 06e8 f4bd b54a 293f 14eb fbbb
000000d0: fbc7 ff3e d568 0f3f 0c35 6fbe f626 b5be
000000e0: 7c5c 1dbe 72ee 1bbe 6836 d6bc 801b 7abc
000000f0: a6bf 0bbf ddf1 14bf f757 e63e 16e5 123c
00000100: 1c59 693c b02f 523e 6648 c6be e6d7 883c
00000110: 72e5 8cbe 22eb 213f af7b 9cbd e27a 81bf
00000120: eb6c 68be 1bc8 cb3e 2790 bd3e 14dd b53e
00000130: 75f2 3fbe 0561 41bf 6d3d 113b 25b6 66be
00000140: 688a c53d 9c7d 91bd e721 05bf 5075 0bbe
00000150: 7e20 8bbe ee2f c7be 6ecd 043f fab7 583f
00000160: a47c ee3d 2c54 3fbe c316 41bf 58b2 8e3b
00000170: 5bac 263f f090 da3e 6067 c13d 9b6f 1bbe
00000180: 0c4b 9f3d 1791 343d ec5f ccbd d542 02bf
00000190: c4a7 9fbe 348f 2a3c 509f b2be bc09 d73e
000001a0: 05de c33e 7c67 88bd 9f33 3a3e edcd 9b3e
000001b0: 1ab6 35be 5118 c4be db1e 18bd bd64 1cbe
000001c0: 9ed0 813e b0ae 163e c721 0cbe 4481 013f
000001d0: 92e4 2a3e a67a 13be 127a 003f 2692 aabe
000001e0: ab04 5c3e 7111 493e 6da1 d3be 6b44 40be
000001f0: 41a3 abbe ec8c 4bbd 7de0 0c3e 4794 2d3e
00000200: 2ad4 2abe a957 043d 9bb4 c4be f07f eebe
00000210: ba2b 71be 97c4 bebd 01f5 1d3f 75b2 12bf
00000220: ec6d e83d c68e 5f3d f4f4 bbbe d330 953e
00000230: 1eb0 e13e da31 75be ca78 863c e31c 04bd
00000240: 3537 d93c ebb3 65be f55c d93e da44 78be
00000250: 5e79 93be 87fb d83c 4d30 463d 7159 69bf
00000260: 86be bfbd f404 113e f3c8 463f d699 59bd
00000270: abfc 83be 9cd9 02be 787f b5bd 6ef2 ac3e
00000280: 11f0 3a3d 6370 5a3e 2d8e f83e c6c7 03be
00000290: 3586 84be 29a1 d03e 0fdc b2be 5e5b 24bf
000002a0: c46f 71be 2560 4a3e fc40 003f 67b5 78be
000002b0: c784 5cbe 38cf eabe 4aae 4f3e 45f8 20be
000002c0: f871 c03e 3d7f 823d 7f08 133f 78d9 12bf
000002d0: c8e2 19bd 81bb f2bd d40c 773d 01bf c1be
000002e0: 2847 9f3b 09a2 8b3e 8a13 ff3e a11d 4f3e
000002f0: 459d cabe d76a 19bf 744a 67be c2d9 fc3e
00000300: 0f6b 263e 22c9 2f3d f00b 533e 876f debe
00000310: adb1 403e 5c86 3c3e ee53 2e3f d1b2 f93d
00000320: 10ec 533e 5597 2abe ca77 003e 9739 893e
00000330: b72f 22bd cb3d 29bf 7813 24be 432f 873d
00000340: 8f0f 31be 4b37 d3bd ec9f 6ebe d41e 163f
00000350: ca3b fc3d 2dfc 88bd 7b25 843d 00c0 32bf
00000360: 9d76 18bd 5079 933d 0490 debc bb3c 113e
00000370: 1fe7 3b3d d3e5 033d 5b8f 54be 9241 1ebc
00000380: f546 49bd ba93 8cbd 72d4 2b3e 6907 72bd
00000390: fba8 673e ae0f ce3d abff e53e 3abc f03b
000003a0: 091d f33d 9d1b cdba 0afa 233d cfd6 ff3d
000003b0: de85 b2be 4887 23bf 16f3 6f3c 53a5 11be
0.11702076 0.5694235 0.5590482 -0.17563453 -0.20358877 -0.059811156 -0.72736233 -0.3792443
0.31602207 0.3517324 -0.009217346 0.59436363 -0.09611723 -0.6337377 -0.1531939 -0.14044294
0.08351405 0.235265 0.4073625 -0.45679018 0.20979626 -0.06612582 -0.5173729 -0.85661954
0.20860979 0.4299394 0.13285269 0.2450672 -0.3331703 -0.7796921 0.2611631 -0.1404384
-0.18552047 0.5664976 0.7651987 0.058603503 -0.07288208 -0.12027096 -0.11335111 -0.7859047
-0.12141442 0.17046073 0.029008841 0.5405776 -0.6601796 -0.20151822 -0.038918544 0.1838434
0.2452975 -0.119583175 0.6612962 -0.0076879356 0.4995726 0.56019336 -0.2336008 -0.35381287
-0.15367311 -0.15227678 -0.02614899 -0.015265346 -0.5458931 -0.58181554 0.44988987 0.008965751
0.014242437 0.20526004 -0.3872711 0.01670451 -0.27518803 0.6324941 -0.07640778 -1.0115626
-0.22697799 0.39801106 0.37024042 0.35520232 -0.18744834 -0.75538665 0.0022161857 -0.2253042
0.096455395 -0.07104036 -0.52004856 -0.1361897 -0.27173227 -0.38903755 0.5187596 0.84655726
0.11644867 -0.18684453 -0.75425357 0.0043547563 0.65106744 0.42688704 0.09443545 -0.15179293
0.07777986 0.04408368 -0.09979233 -0.5088323 -0.31182683 0.010410119 -0.3488717 0.41999614
0.38255325 -0.06660363 0.18183754 0.30430546 -0.17745247 -0.38299802 -0.0371388 -0.15272804
0.25354475 0.14715075 -0.1368476 0.5058787 0.16688755 -0.14402255 0.50186265 -0.33314627
0.21486156 0.1963556 -0.41334096 -0.187761 -0.3352299 -0.04969494 0.1375751 0.16951095
-0.16682497 0.03231016 -0.3841904 -0.46581984 -0.23551837 -0.0931484 0.6170197 -0.57303554
0.11349091 0.05457952 -0.36710322 0.29138812 0.4407968 -0.23944798 0.016415019 -0.03225411
0.026515583 -0.22431915 0.42453733 -0.24245015 -0.28803533 0.026487125 0.048385907 -0.911521
-0.09362511 0.14162046 0.77650374 -0.053125225 -0.25778708 -0.12778324 -0.08862203 0.3377871
0.0456391 0.21331935 0.48545972 -0.12869176 -0.25883642 0.40747955 -0.34933516 -0.64201915
-0.23577791 0.19763239 0.5009916 -0.2428795 -0.21535026 -0.4586122 0.2028133 -0.15719707
0.3758695 0.06371925 0.5743484 -0.5736308 -0.03756979 -0.1185217 0.06031497 -0.37841037
0.0048607774 0.2727206 0.49819595 0.20226146 -0.39573112 -0.5992865 -0.22586995 0.49384886
0.16251777 0.042916425 0.20610023 -0.43444464 0.18817778 0.18410629 0.68096817 0.1219231
0.2069552 -0.16659291 0.12545696 0.2680175 -0.039596286 -0.66109914 -0.16023052 0.06600811
-0.17291091 -0.10313281 -0.23303193 0.5864079 0.12316091 -0.06688724 0.06452461 -0.6982422
-0.037222493 0.07200873 -0.027168281 0.14183323 0.04587471 0.0322016 -0.20757811 -0.009659188
-0.049139936 -0.06864114 0.1678026 -0.059089098 0.22623055 0.100615844 0.44921622 0.007346657
0.118707724 -0.0015648488 0.040033378 0.12492143 -0.34867758 -0.638783 0.014645359 -0.14223222

intercepts f4 [1, 16]
00000000: 251a 453e fa82 773e d03c 0a3f 93b0 223e
00000010: 517d 06bf 8373 2e3e 5dfd 8c3e 8222 943f
00000020: 9ba3 4c3e 667a 533e 5650 873d 3d41 74be
00000030: aac6 413f 71d8 603e 23ca d5be b3c5 7bbd
0.19248255 0.24171057 0.5399904 0.1588767 -0.5253497 0.17036252 0.2753705 1.1573031
0.19984286 0.2065216 0.0660712 -0.23853011 0.7569376 0.21957566 -0.4175578 -0.061467838

coefficient1 f4 [16, 1]
00000000: 2a56 bd3e b1ab 1b3e 7afc 113f 1fc3 47bf
00000010: 6825 c83c 3fb8 e83e 31fb 4bbf 4816 0fbf
00000020: 91e6 843e 47d8 843e e120 3f3f 35ca 3f3e
00000030: f0b3 18bf 90f8 16bf 6098 883e 1752 943e
0.369798 0.15202214 0.57025874 -0.78032106 0.0244319 0.4545307 -0.7968016 -0.55893373
0.25957158 0.25946257 0.74659544 0.1872948 -0.5964956 -0.58973026 0.26678753 0.2896888
